…
Nc1nc(O)nc2nc[nH]c12 
CCCCCc1ccccc1
C1CCCCCC1
CCC(C)n1c(=O)[nH]c(C)c(Br)c1=O 
c1ccc(cc1)c2ccccc2
Nc1cccc(c1)N(=O)=O
Cc1ccc2c(ccc3ccccc32)c1
Cc1cc(=O)n(c2ccccc2)n1C
CCCO
CC/C=C/C
ClCC#N
CC(=O)Nc1ccc(cc1)N(=O)=O
CC(=O)C1(O)CCC2C3CCC4=CC(=O)CCC4(C)C3CCC21C
Clc1cccc(Cl)c1Cl
CCc1cccc(CC)c1N(COC)C(=O)CCl 
CCCCC(=O)CCCC
CC(C)CC(=O)C
ClC(Cl)C(c1ccc(Cl)cc1)c2ccc(Cl)cc2 
Cc1c[nH]c2ccccc12 
CCC(CC)CO
OC1CCCCCC1
Oc1ccc(Br)cc1
COc1cc(CC=C)ccc1O
114 loaded!
SchNetModel(
  (activation): ShiftSoftplus(
    beta=1, threshold=20
    (softplus): Softplus(beta=1, threshold=20)
  )
  (embedding_layer): AtomEmbedding(
    (embedding): Embedding(100, 64, padding_idx=0)
  )
  (rbf_layer): RBFLayer()
  (conv_layers): ModuleList(
    (0): Interaction(
      (activation): Softplus(beta=0.5, threshold=14)
      (node_layer1): Linear(in_features=64, out_features=64, bias=False)
      (cfconv): CFConv(
        (linear_layer1): Linear(in_features=5, out_features=64, bias=True)
        (linear_layer2): Linear(in_features=64, out_features=64, bias=True)
        (activation): Softplus(beta=0.5, threshold=14)
      )
      (node_layer2): Linear(in_features=64, out_features=64, bias=True)
      (node_layer3): Linear(in_features=64, out_features=64, bias=True)
    )
    (1): Interaction(
      (activation): Softplus(beta=0.5, threshold=14)
      (node_layer1): Linear(in_features=64, out_features=64, bias=False)
      (cfconv): CFConv(
        (linear_layer1): Linear(in_features=5, out_features=64, bias=True)
        (linear_layer2): Linear(in_features=64, out_features=64, bias=True)
        (activation): Softplus(beta=0.5, threshold=14)
      )
      (node_layer2): Linear(in_features=64, out_features=64, bias=True)
      (node_layer3): Linear(in_features=64, out_features=64, bias=True)
    )
    (2): Interaction(
      (activation): Softplus(beta=0.5, threshold=14)
      (node_layer1): Linear(in_features=64, out_features=64, bias=False)
      (cfconv): CFConv(
        (linear_layer1): Linear(in_features=5, out_features=64, bias=True)
        (linear_layer2): Linear(in_features=64, out_features=64, bias=True)
        (activation): Softplus(beta=0.5, threshold=14)
      )
      (node_layer2): Linear(in_features=64, out_features=64, bias=True)
      (node_layer3): Linear(in_features=64, out_features=64, bias=True)
    )
  )
  (atom_dense_layer1): Linear(in_features=64, out_features=64, bias=True)
  (atom_dense_layer2): Linear(in_features=64, out_features=1, bias=True)
)
Epoch  0, loss: 317.3393158, mae: 5.7378715
Epoch  0, val_loss: 211.7100375, val_mae: 6.7829735
Epoch  1, loss: 607.9170898, mae: 6.2324430
Epoch  1, val_loss: 26.4912680, val_mae: 2.6610086
Epoch  2, loss: 143.5607673, mae: 4.2316643
Epoch  2, val_loss: 24.6601262, val_mae: 2.2159217
Epoch  3, loss: 295.1447862, mae: 5.8811583
Epoch  3, val_loss: 70.7957349, val_mae: 4.2998928
…
