…
ClC(Cl)=C(Cl)Cl
NC(=O)OCC(C)(C)C
OCCCCCCCCCCCCCCCC
O(c(ccc(nccc1C(O)C(N(CCC2C3C=C)C3)C2)c14)c4)C
CCCCC=O
c1c(C)c(C)c(C)c(C)c1C
c1ccc2cccc3c2c1C=C3
ClC(Cl)=C
C1CCCC(C)C1=O
CNC(=O)Oc1cccc(N=CN(C)C)c1
c1cc2OC(=O)C=Cc2cc1
O=C(OCC)c(cccc1)c1
O=C(OCCC(C)C)C
OCCCCCCCC
c1c(F)cc(F)c(F)c1F
ClC1=C(Cl)C(Cl)(C2(Cl)Cl)C3CC=CC3C12Cl
n(c(c(ccc1)cc2cccc3)c1)c23
c1cc2cc3cc(CC)ccc3cc2cc1
n(c(O)ccc1)c1
O=S(=O)(Nc(nccc1C)n1)c(ccc(N)c2)c2
101 loaded!
SchNetModel(
  (activation): ShiftSoftplus(
    beta=1, threshold=20
    (softplus): Softplus(beta=1, threshold=20)
  )
  (embedding_layer): AtomEmbedding(
    (embedding): Embedding(100, 64, padding_idx=0)
  )
  (rbf_layer): RBFLayer()
  (conv_layers): ModuleList(
    (0): Interaction(
      (activation): Softplus(beta=0.5, threshold=14)
      (node_layer1): Linear(in_features=64, out_features=64, bias=False)
      (cfconv): CFConv(
        (linear_layer1): Linear(in_features=5, out_features=64, bias=True)
        (linear_layer2): Linear(in_features=64, out_features=64, bias=True)
        (activation): Softplus(beta=0.5, threshold=14)
      )
      (node_layer2): Linear(in_features=64, out_features=64, bias=True)
      (node_layer3): Linear(in_features=64, out_features=64, bias=True)
    )
    (1): Interaction(
      (activation): Softplus(beta=0.5, threshold=14)
      (node_layer1): Linear(in_features=64, out_features=64, bias=False)
      (cfconv): CFConv(
        (linear_layer1): Linear(in_features=5, out_features=64, bias=True)
        (linear_layer2): Linear(in_features=64, out_features=64, bias=True)
        (activation): Softplus(beta=0.5, threshold=14)
      )
      (node_layer2): Linear(in_features=64, out_features=64, bias=True)
      (node_layer3): Linear(in_features=64, out_features=64, bias=True)
    )
    (2): Interaction(
      (activation): Softplus(beta=0.5, threshold=14)
      (node_layer1): Linear(in_features=64, out_features=64, bias=False)
      (cfconv): CFConv(
        (linear_layer1): Linear(in_features=5, out_features=64, bias=True)
        (linear_layer2): Linear(in_features=64, out_features=64, bias=True)
        (activation): Softplus(beta=0.5, threshold=14)
      )
      (node_layer2): Linear(in_features=64, out_features=64, bias=True)
      (node_layer3): Linear(in_features=64, out_features=64, bias=True)
    )
  )
  (atom_dense_layer1): Linear(in_features=64, out_features=64, bias=True)
  (atom_dense_layer2): Linear(in_features=64, out_features=1, bias=True)
)
Epoch  0, loss: 49.3240452, mae: 3.0099906
Epoch  0, val_loss: 4.7929701, val_mae: 1.3885884
Epoch  1, loss: 5.7076813, mae: 1.2764471
Epoch  1, val_loss: 2.1814536, val_mae: 0.9553983
Epoch  2, loss: 3.3449005, mae: 1.0041949
Epoch  2, val_loss: 1.3211176, val_mae: 0.7834397
Epoch  3, loss: 1.3883937, mae: 0.7726037
Epoch  3, val_loss: 0.9832822, val_mae: 0.6762017
…
